main
ckpt se3_log_map
model <bound method Module.state_dict of PoseRegressor(
  (backbone): ResNet(
    (conv1): Conv2d(1, 64, kernel_size=(7, 7), stride=(2, 2), padding=(3, 3), bias=False)
    (bn1): GroupNorm(32, 64, eps=1e-05, affine=True)
    (act1): ReLU(inplace=True)
    (maxpool): MaxPool2d(kernel_size=3, stride=2, padding=1, dilation=1, ceil_mode=False)
    (layer1): Sequential(
      (0): BasicBlock(
        (conv1): Conv2d(64, 64, kernel_size=(3, 3), stride=(1, 1), padding=(1, 1), bias=False)
        (bn1): GroupNorm(32, 64, eps=1e-05, affine=True)
        (drop_block): Identity()
        (act1): ReLU(inplace=True)
        (aa): Identity()
        (conv2): Conv2d(64, 64, kernel_size=(3, 3), stride=(1, 1), padding=(1, 1), bias=False)
        (bn2): GroupNorm(32, 64, eps=1e-05, affine=True)
        (act2): ReLU(inplace=True)
      )
      (1): BasicBlock(
        (conv1): Conv2d(64, 64, kernel_size=(3, 3), stride=(1, 1), padding=(1, 1), bias=False)
        (bn1): GroupNorm(32, 64, eps=1e-05, affine=True)
        (drop_block): Identity()
        (act1): ReLU(inplace=True)
        (aa): Identity()
        (conv2): Conv2d(64, 64, kernel_size=(3, 3), stride=(1, 1), padding=(1, 1), bias=False)
        (bn2): GroupNorm(32, 64, eps=1e-05, affine=True)
        (act2): ReLU(inplace=True)
      )
    )
    (layer2): Sequential(
      (0): BasicBlock(
        (conv1): Conv2d(64, 128, kernel_size=(3, 3), stride=(2, 2), padding=(1, 1), bias=False)
        (bn1): GroupNorm(32, 128, eps=1e-05, affine=True)
        (drop_block): Identity()
        (act1): ReLU(inplace=True)
        (aa): Identity()
        (conv2): Conv2d(128, 128, kernel_size=(3, 3), stride=(1, 1), padding=(1, 1), bias=False)
        (bn2): GroupNorm(32, 128, eps=1e-05, affine=True)
        (act2): ReLU(inplace=True)
        (downsample): Sequential(
          (0): Conv2d(64, 128, kernel_size=(1, 1), stride=(2, 2), bias=False)
          (1): GroupNorm(32, 128, eps=1e-05, affine=True)
        )
      )
      (1): BasicBlock(
        (conv1): Conv2d(128, 128, kernel_size=(3, 3), stride=(1, 1), padding=(1, 1), bias=False)
        (bn1): GroupNorm(32, 128, eps=1e-05, affine=True)
        (drop_block): Identity()
        (act1): ReLU(inplace=True)
        (aa): Identity()
        (conv2): Conv2d(128, 128, kernel_size=(3, 3), stride=(1, 1), padding=(1, 1), bias=False)
        (bn2): GroupNorm(32, 128, eps=1e-05, affine=True)
        (act2): ReLU(inplace=True)
      )
    )
    (layer3): Sequential(
      (0): BasicBlock(
        (conv1): Conv2d(128, 256, kernel_size=(3, 3), stride=(2, 2), padding=(1, 1), bias=False)
        (bn1): GroupNorm(32, 256, eps=1e-05, affine=True)
        (drop_block): Identity()
        (act1): ReLU(inplace=True)
        (aa): Identity()
        (conv2): Conv2d(256, 256, kernel_size=(3, 3), stride=(1, 1), padding=(1, 1), bias=False)
        (bn2): GroupNorm(32, 256, eps=1e-05, affine=True)
        (act2): ReLU(inplace=True)
        (downsample): Sequential(
          (0): Conv2d(128, 256, kernel_size=(1, 1), stride=(2, 2), bias=False)
          (1): GroupNorm(32, 256, eps=1e-05, affine=True)
        )
      )
      (1): BasicBlock(
        (conv1): Conv2d(256, 256, kernel_size=(3, 3), stride=(1, 1), padding=(1, 1), bias=False)
        (bn1): GroupNorm(32, 256, eps=1e-05, affine=True)
        (drop_block): Identity()
        (act1): ReLU(inplace=True)
        (aa): Identity()
        (conv2): Conv2d(256, 256, kernel_size=(3, 3), stride=(1, 1), padding=(1, 1), bias=False)
        (bn2): GroupNorm(32, 256, eps=1e-05, affine=True)
        (act2): ReLU(inplace=True)
      )
    )
    (layer4): Sequential(
      (0): BasicBlock(
        (conv1): Conv2d(256, 512, kernel_size=(3, 3), stride=(2, 2), padding=(1, 1), bias=False)
        (bn1): GroupNorm(32, 512, eps=1e-05, affine=True)
        (drop_block): Identity()
        (act1): ReLU(inplace=True)
        (aa): Identity()
        (conv2): Conv2d(512, 512, kernel_size=(3, 3), stride=(1, 1), padding=(1, 1), bias=False)
        (bn2): GroupNorm(32, 512, eps=1e-05, affine=True)
        (act2): ReLU(inplace=True)
        (downsample): Sequential(
          (0): Conv2d(256, 512, kernel_size=(1, 1), stride=(2, 2), bias=False)
          (1): GroupNorm(32, 512, eps=1e-05, affine=True)
        )
      )
      (1): BasicBlock(
        (conv1): Conv2d(512, 512, kernel_size=(3, 3), stride=(1, 1), padding=(1, 1), bias=False)
        (bn1): GroupNorm(32, 512, eps=1e-05, affine=True)
        (drop_block): Identity()
        (act1): ReLU(inplace=True)
        (aa): Identity()
        (conv2): Conv2d(512, 512, kernel_size=(3, 3), stride=(1, 1), padding=(1, 1), bias=False)
        (bn2): GroupNorm(32, 512, eps=1e-05, affine=True)
        (act2): ReLU(inplace=True)
      )
    )
    (global_pool): SelectAdaptivePool2d(pool_type=avg, flatten=Flatten(start_dim=1, end_dim=-1))
    (fc): Identity()
  )
  (xyz_regression): Linear(in_features=512, out_features=3, bias=True)
  (rot_regression): Linear(in_features=512, out_features=3, bias=True)
)>
  0%|                                                                       | 0/111 [00:00<?, ?it/s]  1%|▌                                                              | 1/111 [00:32<59:11, 32.29s/it]  2%|█▏                                                             | 2/111 [01:01<54:54, 30.22s/it]  3%|█▋                                          
…
